PyTorchForAudio_Colab/cnn.pth (torch, 494151 bytes, 10 tensors)

conv1.0.weight f4 [16, 1, 3, 3]
0	0xbe60dbc7	-0.21958838
1	0x3a0f3fae	0.0005464506
2	0xbe394d88	-0.18095982
3	0x3d5b31ba	0.05351422
4	0xbe3d9767	-0.18514787
5	0x3e8c914e	0.2745461
6	0x3acf4a11	0.001581492
7	0x3e382c26	0.17985591
8	0xbe84c1c7	-0.2592909
9	0x3ea418e7	0.3205025
10	0xbe86fdb1	-0.26365426
11	0x3e7584b2	0.239764
12	0xbe650854	-0.22366458
13	0x3e7cd918	0.2469219
14	0xbd805dd4	-0.06267896
15	0xbe83a208	-0.25709558
16	0x3d472fd4	0.048629597
17	0x3e1ad9d6	0.1512216
18	0x3eab48aa	0.33453876
19	0xbe3b55fd	-0.1829452
20	0xbd128e7d	-0.03578042
21	0x3e9f9254	0.31166327
22	0x3db6a44c	0.08918056
23	0x3dfdb9e6	0.12388973
24	0xbc3fb5fa	-0.011701101
25	0xbdc2febe	-0.095212445
26	0xbe70c9eb	-0.23514526
27	0x3e696297	0.22791515
28	0x3dbb91ea	0.0915869
29	0xbde76812	-0.11299147
30	0x3df6fd11	0.12059987
31	0x3c20edc7	0.009822316
32	0x3ea953de	0.33071798
33	0xbc9eb6df	-0.01937431
34	0xbd68ece4	-0.05686654
35	0x3d70c425	0.058780808
36	0x3e9b794b	0.30365977
37	0x3ea91816	0.3302619
38	0xbd1fc8eb	-0.03900997
39	0x3e1cd018	0.15313756
40	0xbe09bdaf	-0.13451265
41	0xbe01386a	-0.12619177
42	0x3ea640ab	0.32471213
43	0xbe87e8fc	-0.2654494
44	0xbdec648c	-0.11542615
45	0x3e843893	0.25824413
46	0xbc999d90	-0.01875189
47	0x3e86529f	0.2623491
48	0xbeaa0092	-0.3320356
49	0xbd1f6fd2	-0.038925
50	0xbe3976d9	-0.18111743
51	0xbe4727b6	-0.19448742
52	0xbdd6a654	-0.10480943
53	0x3d33ab67	0.043864634
54	0x3e286759	0.16445674
55	0x3e807158	0.25086474
56	0x3d800f5f	0.06252932
57	0x3e880eaa	0.26573688
58	0x3c878f86	0.01654793
59	0xbe1ab5e0	-0.15108442
60	0xbacb64d3	-0.0015517719
61	0x3ca38960	0.019962966
62	0xbe84eba5	-0.25961033
63	0x3ea2c0e9	0.31787804
64	0xbe80c5c2	-0.25150877
65	0x3d842ec0	0.06454229
66	0xbe754fb3	-0.23956184
67	0x3e45a37a	0.19300643
68	0xbd624256	-0.055239044
69	0x3e1b5d8c	0.15172404
70	0x3d01c6e8	0.031683832
71	0x3e68dd66	0.22740707
72	0x3c934e07	0.017981542
73	0xbd53b252	-0.05168373
74	0xbd4fec10	-0.050762236
75	0x3e30e115	0.17273362
76	0x3e8d2888	0.27569985
77	0xbe23f9fc	-0.1601333
78	0xbc8d9288	-0.017281786
79	0x3be87bf5	0.007094855
80	0x3e59f6e6	0.2128559
81	0x3dbd4452	0.09241547
82	0x3e973a47	0.2953665
83	0x3e2fd857	0.17172371
84	0x3e950299	0.29103544
85	0x3e212c69	0.15739597
86	0xbe4bdcd7	-0.19908462
87	0xbdfa3ad9	-0.122182555
88	0xbe356cef	-0.17717336
89	0xbd21c643	-0.039495718
90	0xbdef6c81	-0.11690617
91	0xbe6219b9	-0.22080125
92	0x3e4ca273	0.19983844
93	0xbe46e9bc	-0.194251
94	0xbe62afd2	-0.22137383
95	0x3e53b30b	0.20673768
96	0x3eaa1795	0.33221117
97	0xbdc53c61	-0.09630657
98	0xbc2462c0	-0.010033309
99	0xbe0c2aa4	-0.13688141
100	0x3e69dc90	0.22838044
101	0x3cb89a75	0.022534588
102	0xbdb3da6a	-0.087818936
103	0xbdf9447c	-0.121712655
104	0x3e43967c	0.19100374
105	0xbe0d10e4	-0.13775975
106	0xbd5825f7	-0.05277058
107	0xbea6c5d0	-0.32572794
108	0xbe44c277	-0.19214807
109	0xbe8b406b	-0.27197585
110	0xbe1fe943	-0.15616326
111	0x3dc01032	0.09378089
112	0x3e8199ed	0.2531275
113	0xbe052521	-0.13002445
114	0x3ea8a0a2	0.32935053
115	0x3e5c6f28	0.21526778
116	0xbd802fee	-0.06259142
117	0x3e24bd67	0.16087876
118	0x3daa62c0	0.08319616
119	0xbd8ad31e	-0.06778549
120	0x3e3fb8e4	0.18722874
121	0xbe25cabd	-0.1619062
122	0x3c0091d8	0.007847272
123	0x3ea8575b	0.32879147
124	0x3e03a043	0.12854104
125	0xbe3674c6	-0.17817983
126	0x3d178ad1	0.03699762
127	0xbbb0170c	-0.005373841
128	0x3e747921	0.23874332
129	0x3e8fdda6	0.28098792
130	0x3e5cf7fe	0.21578977
131	0x3e01c09c	0.12671131
132	0x3e341130	0.17584682
133	0x3d8e74f9	0.069559045
134	0xbe3ed9a0	-0.18637705
135	0x3e433c09	0.1906587
136	0xbe2737c2	-0.16329864
137	0xbe557135	-0.20843966
138	0x3e9a1835	0.30096593
139	0x3e7da3d7	0.24769531
140	0x3d4a00fd	0.04931735
141	0xbdebb2ad	-0.11508689
142	0x3c1c63f4	0.009545315
143	0xbd0f340a	-0.034961738

conv1.0.bias f4 [16]
0	0xbe8003bc	-0.2500285
1	0x3d6e1e80	0.058134556
2	0xbe943c3f	-0.28952214
3	0x3e8e3d0b	0.27780947
4	0x3dbd1c43	0.09233906
5	0xbdda070b	-0.106458746
6	0x3d99b40e	0.07505046
7	0xbdb73a19	-0.08946628
8	0x3e72ad26	0.23698863
9	0x3da4e7d8	0.08052033
10	0x3e705eba	0.23473635
11	0xbd911147	-0.070833735
12	0xbd8a265e	-0.06745599
13	0xbd12c2fc	-0.035830483
14	0xbd0a0c3c	-0.033703074
15	0xbcc7560e	-0.024333026

conv2.0.weight f4 [32, 16, 3, 3]
0	0xbd9c80d5	-0.0764176
1	0xbc8415e8	-0.016123727
2	0x3cca5281	0.024697544
3	0x3d45adc5	0.048261423
4	0x3c9f37ea	0.019435842
5	0x3c17987e	0.009252666
6	0x3c6043d8	0.01368805
7	0xbc97d366	-0.01853342
8	0x3d75cf50	0.06001216
9	0x3d5be823	0.05368818
10	0x3d52a478	0.05142638
11	0x3c680374	0.01416098
12	0x3d0f7eeb	0.035033148
13	0x3ccb489c	0.024814896
14	0x3c3804f3	0.011231649
15	0x3c6ad645	0.014333312
16	0x3d13e4e9	0.036106978
17	0x3d5e1aac	0.054224655
18	0x3d2bd207	0.041948345
19	0xbd759f3e	-0.05996632
20	0xbda43749	-0.08018357
21	0x3d0ba3f0	0.03409189
22	0xbc0f7550	-0.008755997
23	0xbd7a6b06	-0.06113722
24	0xbd9bd2cf	-0.07608568
25	0x3d7db388	0.061938792
26	0xbc16c939	-0.009203249
27	0x3b196a87	0.0023409443
28	0xbc83cc2a	-0.016088564
29	0x3d542ab1	0.051798526
30	0x3da43644	0.08018163
31	0xbd30852d	-0.043095756
32	0xbcfebe88	-0.031096712
33	0xbd8a27bd	-0.06745861
34	0x3a6aec3c	0.0008961593
35	0x3d8c013c	0.06836173
36	0x3d0a22b3	0.033724498
37	0xbc808c17	-0.0156918
38	0x3cacfde6	0.021117162
39	0x3d958488	0.07300669
40	0xbd0cd423	-0.034381997
41	0xbd0062ff	-0.03134441
42	0xbd4d3d1c	-0.050107107
43	0x3cf987d2	0.030460272
44	0x3d247fcf	0.04016095
45	0x3d1293f5	0.035785634
46	0x3d175a54	0.036951378
47	0xbd8b426e	-0.0679978
48	0xbc64ee1b	-0.013972784
49	0x3d5bd050	0.05366546
50	0xbd59c64f	-0.053167637
51	0xbc95321a	-0.018212367
52	0x3d87af2b	0.066252075
53	0xbcfd6c06	-0.030935299
54	0x3b033c47	0.0020024942
55	0x3b102eb4	0.0022000493
56	0xbd84c12b	-0.06482156
57	0x3b914ca3	0.0044341846
58	0xbcf2bdd7	-0.029631538
59	0xbd393474	-0.04521604
60	0xbd05394d	-0.03252535
61	0x3d4ca0a8	0.0499579
62	0xbd24a39c	-0.040195093
63	0x3d0ae772	0.03391213
64	0x3d751340	0.05983281
65	0xbdab9d34	-0.083795935
66	0x3d86a2c2	0.06574012
67	0x3c1d3e90	0.009597436
68	0x3d7ca9b8	0.061685294
69	0x3c8eab90	0.017415792
70	0xbcfe57b1	-0.031047674
71	0xbd1875a5	-0.03722157
72	0xbc98d666	-0.01865692
73	0xbc9e7adb	-0.019345691
74	0x3d86020a	0.06543358
75	0x3db034ce	0.08603822
76	0xbc91c5f2	-0.017794583
77	0x3dafd734	0.085859686
78	0x3d37156e	0.04469817
79	0x3cc29b79	0.023755776
80	0xbd20b83a	-0.039238192
81	0xbd88036d	-0.066412784
82	0xbcffc21b	-0.031220486
83	0xbc70df6c	-0.014701705
84	0xbd79782c	-0.06090562
85	0x3d117156	0.035508476
86	0x3d71aca0	0.05900252
87	0x3d710591	0.0588432
88	0x3c432011	0.011909501
89	0x3ce7bc11	0.02828792
90	0x3c5a1cd3	0.013312536
91	0x3da0b46c	0.07846913
92	0xbb60dcbe	-0.003431126
93	0xbce3e184	-0.027817495
94	0x3d8520f0	0.06500423
95	0x3c8d4bcc	0.017248057
96	0x3db65515	0.08902947
97	0x3d66f533	0.056386184
98	0x3c4ad1fe	0.012379168
99	0x3cddeb08	0.02708961
100	0x399a175b	0.0002939057
101	0x3d6181e1	0.055055503
102	0x3d5ff8f4	0.05468078
103	0x3cb26636	0.021777254
104	0xbbbca0c9	-0.005756472
105	0x3d9029aa	0.07039197
106	0xbc2dda50	-0.010611132
107	0x3bd170c8	0.0063916184
108	0x3bc1ef7b	0.005918441
109	0x3d783310	0.060595572
110	0x3c357412	0.011075037
111	0x3d0626de	0.03275191
112	0xbd5bb2bc	-0.05363725
113	0xbcab2023	-0.020889347
114	0xbd29231f	-0.04129326
115	0x3d909e24	0.07061413
116	0x3ce78a4b	0.028264185
117	0xbbc7e9a7	-0.0061008516
118	0x3c9f956b	0.019480428
119	0x3cf24219	0.029572533
120	0xbb23987e	-0.0024962719
121	0xbd0ca32f	-0.03433531
122	0x3d209c18	0.039211363
123	0xbd9b0269	-0.07568819
124	0x3cbab8d4	0.022793211
125	0x3d85c94a	0.065325335
126	0x3d92518d	0.07144461
127	0xbb90f15e	-0.0044233045
128	0x3c17bf5d	0.009261933
129	0x3d9646be	0.07337712
130	0xbd9a5823	-0.07536342
131	0xbd0c1731	-0.034201805
132	0x3d0bb251	0.034105603
133	0xbd0ff982	-0.03515006
134	0xbd4353c1	-0.047687296
135	0x3c5acdf3	0.013354766
136	0x3d25ec5a	0.040508606
137	0xbdbd1762	-0.092329755
138	0xbcd8193c	-0.02637922
139	0xbd45c540	-0.048283815
140	0x3da2a79a	0.07942124
141	0x3cd118dd	0.025524551
142	0x3ccce12d	0.025009716
143	0xbd11de23	-0.035612237
144	0x3ce1f9be	0.027584907
145	0xbb139a68	-0.0022522453
146	0x3ce7da2d	0.028302277
147	0x3cde25a7	0.027117563
148	0x3d5833c8	0.052783757
149	0x3d55c7f6	0.05219265
150	0xbd632c4c	-0.055462167
151	0xbc41e260	-0.011833757
152	0x3d8b8b9d	0.068137385
153	0xbd2e8f25	-0.042616982
154	0xbd8715bc	-0.065959424
155	0xbc940bc0	-0.01807201
156	0xbd3dd14a	-0.04634217
157	0x3d0b5ea8	0.034025818
158	0xbd17e594	-0.037084177
159	0x3d3d3dbe	0.04620146
160	0x3db699ea	0.089160755
161	0x3d36e70f	0.04465395
162	0x37ee9b7a	2.844421e-05
163	0xbd35d532	-0.044392772
164	0x3c92d246	0.017922532
165	0x3b510f43	0.0031899966
166	0xbd06a497	-0.03287181
167	0x3c23e069	0.010002234
168	0xbd586e09	-0.052839313
169	0x3dade0b5	0.08490125
170	0x3cbd2916	0.02309088
171	0xbd4ac3b4	-0.049503043
172	0xbd239099	-0.03993282
173	0xbd0d7f64	-0.034545317
174	0xbcf6088c	-0.030033372
175	0xbb9821f6	-0.0046427203
176	0xbd4137a3	-0.0471722
177	0x3dc38033	0.095459364
178	0xbc27dd59	-0.0102456445
179	0x3d89ec46	0.06734519
180	0x3d821179	0.06350989
181	0xbcbef9aa	-0.023312408
182	0x3cf1ecab	0.029531797
183	0xbd3cb9c8	-0.046075612
184	0x3d8ab149	0.06772096
185	0xbd92761d	-0.071514346
186	0x3b81859e	0.003952696
187	0x3d3d2f9b	0.04618798
188	0xbceac6c3	-0.02865923
189	0x3d1b89ea	0.037973322
190	0x3ca3d56b	0.019999227
191	0x3c65aab1	0.014017747
192	0x3d3f69bc	0.046731696
193	0xbd917082	-0.07101537
194	0x3d717e7e	0.058958523
195	0xbd9d1184	-0.076693565
196	0xbc035281	-0.008015276
197	0xbd20ebd0	-0.03928739
198	0xbd9ca7c1	-0.07649184
199	0x3d360913	0.044442248
200	0xbcbe700c	-0.023246787
201	0x3d0e3f0e	0.034728102
202	0x39ffb2f5	0.00048770724
203	0xbd97ad2d	-0.074060775
204	0xbd068a88	-0.032846957
205	0xbd824f80	-0.0636282
206	0x3d3ac53e	0.04559826
207	0x3ca535b3	0.020167207
208	0x3ce947e7	0.028476669
209	0x3cfad1ce	0.03061762
210	0xbd7b8359	-0.06140456
211	0xbd4c0681	-0.04981089
212	0x3a15acb6	0.0005709635
213	0x3d69bf98	0.057067484
214	0x3c062609	0.008187779
215	0x3dab127a	0.083531335
216	0x3d6b5994	0.057458475
217	0xbc866b29	-0.01640852
218	0xbd8001e5	-0.06250361
219	0xbc44726d	-0.011990172
220	0xbd84e0fa	-0.064882234
221	0x3d542e6f	0.051802095
222	0x3c9e36a9	0.019313173
223	0x3d331489	0.043720756
224	0xbc43dbe1	-0.011954279
225	0x3d7472e9	0.0596799
226	0xbc8fe515	-0.01756529
227	0xbc7c4434	-0.01539712
228	0xbd91e9b8	-0.071246564
229	0x3c8da718	0.01729159
230	0xbd3c3b1e	-0.045954816
231	0x3d3843ba	0.044986464
232	0x3cbac7fe	0.022800442
233	0xbc137fd8	-0.009002648
234	0xbd7ffd34	-0.062497333
235	0xbdac6bef	-0.08419024
236	0x3d1ff6e5	0.039053816
237	0x3c43c593	0.011948961
238	0xbd500eba	-0.050795294
239	0x3cdac760	0.026706398
240	0x3d995bc5	0.07488207
241	0x3cac59f4	0.021038987
242	0x3dc2dd5a	0.09514876
243	0xbc6ea2a1	-0.014565141
244	0x3d8e9d2d	0.06963573
245	0xbd68e424	-0.056858197
246	0xbd9dc2cb	-0.077031694
247	0xbdb6bee0	-0.08923125
248	0xbac83b17	-0.0015276399
249	0xbd7fa6d6	-0.062414967
250	0xbc3ecdf0	-0.011645779
251	0x3cfee8ad	0.031116808
252	0x3b61e0bb	0.0034466225
253	0xbda329dd	-0.07966969
254	0x3d2940ef	0.04132169
255	0xbd0fca3c	-0.035104975

conv2.0.bias f4 [32]
0	0x3c832feb	0.01601406
1	0x3d36adfa	0.04459951
2	0x3d5ab209	0.053392444
3	0x3d47bacf	0.04876214
4	0xbc629e89	-0.013831743
5	0xbc8f1f0e	-0.017470863
6	0xbd18bfb4	-0.037292197
7	0xbc8d380e	-0.017238643
8	0x3cdcb03c	0.026939504
9	0xbd031ac4	-0.032007948
10	0x3d1481a1	0.036256436
11	0xbd564d2d	-0.052319694
12	0xbbece50e	-0.007229454
13	0xbdb1c427	-0.08679991
14	0xbc75afd0	-0.01499553
15	0xbd99db55	-0.075125374
16	0xbd358673	-0.044317674
17	0x3d8db2bd	0.06918857
18	0xbd8e1d1f	-0.06939148
19	0x3c9f92b2	0.01947913
20	0x3ca76175	0.020432213
21	0x3d8e9908	0.06962782
22	0x3d2b367f	0.04180002
23	0x3d887346	0.06662612
24	0x3da4a9e4	0.080402166
25	0x3bc9cb5f	0.006158277
26	0xbcb71c21	-0.02235228
27	0xbcc5681b	-0.024097493
28	0x3d279218	0.04091081
29	0x3bac1926	0.0052520214
30	0x3d046442	0.032322176
31	0xbd3e8970	-0.04651779

conv3.0.weight f4 [64, 32, 3, 3]
0	0xbb519889	-0.0031981787
1	0xbca983fc	-0.020692818
2	0xbd0cf458	-0.03441271
3	0xbd66c751	-0.056342427
4	0xbc4d4345	-0.012528245
5	0xbced8556	-0.028994244
6	0x3cd1f2d2	0.025628481
7	0xbd2bd2a2	-0.041948922
8	0xbd62168f	-0.055197295
9	0xbd6fe5a6	-0.05856862
10	0x3cf5e6da	0.030017305
11	0x3d6a882b	0.057258766
12	0x3cdb049a	0.026735593
13	0xbcace408	-0.021104828
14	0xbc70085c	-0.0146504305
15	0xbd38cc08	-0.045116454
16	0x3bb2088e	0.0054331487
17	0x3d20d827	0.03926864
18	0xbd058afa	-0.03260324
19	0xbd48dc7e	-0.049038403
20	0x3c2dda4d	0.010611129
21	0xbc4bce95	-0.01243939
22	0x3cf34d2f	0.02969989
23	0x3c9f7502	0.019464973
24	0x3cb9830a	0.022645492
25	0x3c247cfb	0.010039563
26	0xbc8f7f56	-0.017516773
27	0x3d1b4a4c	0.037912652
28	0xbd22c211	-0.039735857
29	0x3ca24145	0.019806514
30	0xbbc56816	-0.006024371
31	0x3c0e118a	0.008671174
32	0x3d288cf0	0.041150033
33	0x3cba8f61	0.022773447
34	0x3b8aece1	0.004239664
35	0x3c32888c	0.010896813
36	0xbd10d416	-0.03535851
37	0x3d1ea712	0.03873355
38	0x3c9b9c84	0.01899553
39	0xbc45fc53	-0.012084085
40	0xbd55a1f6	-0.05215641
41	0x3d1d87ea	0.038459696
42	0xbc8f9ad0	-0.017529875
43	0x3ace86b0	0.0015756693
44	0x3d6e6a5c	0.0582069
45	0x3d66565f	0.056234714
46	0x3d3d90bb	0.046280604
47	0xbd122879	-0.03568313
48	0x3c88ca55	0.016698042
49	0xbcf709ed	-0.0301561
50	0xbd4084b3	-0.04700155
51	0xbc3eca97	-0.011644981
52	0xbd331fc4	-0.043731466
53	0x3cd96786	0.026538622
54	0xbd0acf33	-0.033889007
55	0x3d055841	0.03255487
56	0x3d604d2d	0.0547611
57	0xbd336936	-0.04380151
58	0x3ca6121e	0.02027231
59	0xbc10f113	-0.008846539
60	0xbc7e5c90	-0.015524998
61	0xbbd7decb	-0.0065878383
62	0xb9c61789	-0.00037783038
63	0x3c3bc4e7	0.011460519
64	0x3d5749ae	0.0525605
65	0x3d53f5b5	0.051747996
66	0x3d47a84e	0.048744492
67	0x3cfcfeaf	0.030883161
68	0xbc551d5e	-0.01300749
69	0xbd2ff1e9	-0.042955313
70	0xbcbb98cd	-0.02290001
71	0xbd63b77c	-0.055594906
72	0xbd4a1e1f	-0.049345132
73	0xbd1b4e83	-0.03791667
74	0x3d6cafea	0.057784952
75	0x3d236b10	0.039897025
76	0x3bb07898	0.0053854696
77	0xbd375a37	-0.04476377
78	0x3d5e1969	0.05422345
79	0x3d208cec	0.039196894
80	0xbd3ab84c	-0.045585915
81	0x3d0dffd6	0.034667812
82	0xbcf308b0	-0.029667228
83	0xbce410e3	-0.027840083
84	0xbd66d856	-0.056358658
85	0x3d14618e	0.036225848
86	0x3d2f4e6c	0.0427994
87	0xbd03249d	-0.03201734
88	0xbc8df4a0	-0.01732856
89	0x3cbd15db	0.02308171
90	0xbd64c4c5	-0.055851717
91	0x3d5ea6b6	0.054358207
92	0x3d3747cc	0.044746205
93	0x3b72aa3c	0.0037027737
94	0x3c2ae0ae	0.010429544
95	0x3c73e5ce	0.014886333
96	0x3d1a2197	0.03762969
97	0x3d12eb50	0.035868943
98	0xbc873f2b	-0.016509613
99	0xbcc01894	-0.02344922
100	0xbd3af7c6	-0.04564645
101	0xbc1ec0e0	-0.00968954
102	0xbcbf8d29	-0.02338274
103	0x3c5f42a7	0.013626731
104	0xbc31be51	-0.010848598
105	0xbd7b23f3	-0.06131358
106	0xbd883fe9	-0.06652815
107	0xbbe9f69d	-0.0071399943
108	0x3ba10f50	0.0049151555
109	0xbcee6555	-0.029101053
110	0xbc492607	-0.012277133
111	0xbd5496e7	-0.051901724
112	0x3ca9d217	0.020730061
113	0x3d21f74d	0.039542485
114	0xbd1b6654	-0.037939385
115	0x3d25b167	0.040452387
116	0xbd43ed3a	-0.04783366
117	0x3cae702e	0.021293726
118	0xbc959b51	-0.018262537
119	0x3c79e834	0.015253115
120	0x3d3973d7	0.04527649
121	0xbd4f903f	-0.050674673
122	0xbc48cea8	-0.012256302
123	0x3d7d2880	0.061806202
124	0xbc948f42	-0.018134717
125	0xbc223a8b	-0.009901653
126	0xbd127e3a	-0.03576491
127	0xbd306cc1	-0.043072466
128	0xbcc0b993	-0.023525989
129	0xbd191e36	-0.037382327
130	0x3b658031	0.0035019035
131	0xbc9019fa	-0.017590512
132	0x3c6cf524	0.014462743
133	0xbc200a41	-0.00976807
134	0xbd4d1539	-0.050069068
135	0x3b5f8b33	0.0034110069
136	0xbd125186	-0.035722278
137	0x3cdd60bc	0.027023666
138	0x3cce12ed	0.025155509
139	0xbd6394d0	-0.05556184
140	0xbc9cd02f	-0.019142238
141	0x3bdeb804	0.0067968387
142	0x3c5b365b	0.013379659
143	0xbd270ed1	-0.040785614
144	0xbd2cd270	-0.042192876
145	0xbc5d7986	-0.013517743
146	0x3d693234	0.056932643
147	0x3c00ebec	0.007868748
148	0xbd13a417	-0.03604516
149	0x3c79cf56	0.015247187
150	0x3cbc31ab	0.022972902
151	0xbb22d414	-0.0024845647
152	0x3ab81d26	0.0014046773
153	0x3d476903	0.04868413
154	0x3d241c8e	0.040066294
155	0x3d4a2b31	0.049357597
156	0x3d6176b8	0.05504486
157	0xbd333427	-0.04375091
158	0xbd0c7a09	-0.03429607
159	0x3d316cdc	0.043316707
160	0xbd42bb6e	-0.047542028
161	0xbd67f177	-0.056626763
162	0x3cd0bf3e	0.025481816
163	0xbcf5fbbd	-0.030027265
164	0x3c4a216d	0.012337071
165	0x3d1d0d60	0.038342834
166	0x3cc8ccb8	0.02451168
167	0xbd3113c1	-0.04323173
168	0x3d537a2c	0.051630184
169	0xbc453309	-0.0120360935
170	0x3d5514ad	0.05202167
171	0xbbee6bfa	-0.0072760554
172	0xbcc20c83	-0.023687607
173	0x3c014f9f	0.007892518
174	0x3d143589	0.036183868
175	0x3bc93b03	0.006141068
176	0xbd209750	-0.039206803
177	0xbcfed394	-0.031106748
178	0x3c231d76	0.0099557545
179	0xbd10507c	-0.035233006
180	0x3d474f34	0.04865952
181	0xbbcdf84c	-0.006285703
182	0x3b136500	0.002249062
183	0xbce3bfd8	-0.02780144
184	0xbd44fa2d	-0.04809015
185	0x3d422a4e	0.047403626
186	0x3cdf0dbb	0.027228227
187	0x3c879cc2	0.01655424
188	0x3b5a6ae5	0.0033327874
189	0xbd38f2fe	-0.04515361
190	0xba9f802f	-0.0012168939
191	0x3cd52ada	0.02602141
192	0xbd097acf	-0.033564385
193	0xbd008d29	-0.03138462
194	0x3d39def4	0.04537864
195	0x3cda0a53	0.026616251
196	0x3d5d4e3f	0.0540297
197	0x3ca2bf78	0.01986669
198	0x3d290ab0	0.041269958
199	0x3d5f5e0c	0.05453305
200	0xbbe5d83a	-0.0070143016
201	0xbd33d40e	-0.043903403
202	0xbd0c3062	-0.03422583
203	0xbc6e9c9d	-0.014563707
204	0x3ca9985d	0.020702535
205	0x3cf6845d	0.030092413
206	0xbc9fc5f5	-0.019503573
207	0xbd394c1f	-0.04523861
208	0xbc8651be	-0.0163964
209	0xbb8640ab	-0.0040970645
210	0x3ae50455	0.0017472605
211	0xbc645eeb	-0.013938646
212	0x3d01d536	0.031697474
213	0xbd0b40e3	-0.033997428
214	0x3d40972b	0.047019165
215	0x3c2e356f	0.010632857
216	0x3c935729	0.017985897
217	0x3bb77e4e	0.0055997735
218	0xbcf8c47c	-0.030367129
219	0xbcb4110b	-0.021980783
220	0xbc3c7893	-0.0115033565
221	0x3c0a434c	0.008438896
222	0xbc61d8ff	-0.013784646
223	0xbd401f2f	-0.04690474
224	0xbc91b52b	-0.017786583
225	0x3cc53cce	0.024076845
226	0x3d5ea7d4	0.054359272
227	0x3bfef2d9	0.0077804145
228	0xbc2b2fde	-0.010448424
229	0xbd08e105	-0.03341772
230	0x3caeef7b	0.021354428
231	0x3ad0fcfe	0.0015944538
232	0xbce89029	-0.028389053
233	0xbd03d7b4	-0.032188132
234	0x3cc39126	0.023872923
235	0x3c7dfadc	0.015501704
236	0x3d717bfb	0.058956128
237	0xbd25a30a	-0.04043869
238	0xbc4fb9f0	-0.012678608
239	0x3d44250f	0.047886904
240	0xbc398d15	-0.0113251405
241	0xbb3e609b	-0.002904928
242	0xbcc68620	-0.024233878
243	0x3c0aae72	0.008464443
244	0xbd5fba54	-0.054621056
245	0xbd423adb	-0.04741941
246	0xbc88e2ed	-0.01670977
247	0xbd6219c5	-0.055200357
248	0x3aedc61f	0.001814071
249	0xbd834345	-0.06409315
250	0xbc79dbc2	-0.015250148
251	0xbc45db63	-0.012076232
252	0x3d09c7da	0.03363786
253	0x3d532498	0.05154857
254	0x3d10f3a9	0.035388622
255	0xbd1c8a38	-0.038217753

conv3.0.bias f4 [64]
0	0x3c5c28b3	0.013437438
1	0xbd0dd9a3	-0.034631383
2	0x3d844c09	0.06459815
3	0x3d05d014	0.032669142
4	0xbd17c305	-0.03705122
5	0x3c4a1d8d	0.012336147
6	0xbd3e6977	-0.046487298
7	0x3d3d1fb0	0.046172798
8	0xbc88ee96	-0.01671533
9	0x3d0952e5	0.03352632
10	0x3cfefddd	0.03112691
11	0x3d18ff1a	0.03735266
12	0xbd33f1f4	-0.043931916
13	0x3cd4272e	0.025897589
14	0xbc50c1e4	-0.01274154
15	0x3b80e840	0.0039339364
16	0x3d3d2026	0.046173237
17	0x3d211543	0.039326917
18	0x3cdd9724	0.027049609
19	0x3c9938e0	0.018703878
20	0x3c715a42	0.014730992
21	0x3d05dddb	0.03268228
22	0x3c521de7	0.012824512
23	0x3d6f8190	0.05847317
24	0x3d2ac2f0	0.041689813
25	0xbd0d01de	-0.03442561
26	0x3d2a50fd	0.041581143
27	0x3c288088	0.0102845505
28	0xbca70ead	-0.02039274
29	0xbcd090f8	-0.025459751
30	0xbd0c7c7f	-0.034298416
31	0xbb9f0290	-0.0048526004
32	0x3c808189	0.015686767
33	0xbd03d9fc	-0.032190308
34	0xbc375a9d	-0.0111910375
35	0xbbabd084	-0.005243363
36	0xbbbdd453	-0.0057931333
37	0x3c7b9121	0.015354426
38	0xbcf7d91f	-0.030254899
39	0x3c577714	0.013150949
40	0x3cfa3653	0.030543482
41	0xbd5f96a6	-0.05458703
42	0x3d47a683	0.048742782
43	0x3d2a05e4	0.041509524
44	0x3d038dd7	0.03211769
45	0x3d2c68e5	0.042092223
46	0xbc630a58	-0.013857447
47	0xbd1bd716	-0.03804692
48	0x3d2ac43e	0.041691057
49	0x3ca98cea	0.020697076
50	0xbd0f05f3	-0.034917783
51	0x3d0690a4	0.032852784
52	0xbcbc40ea	-0.022980172
53	0x3b9ca40b	0.0047802976
54	0x3c061c5b	0.008185471
55	0xbc3110a0	-0.010807186
56	0x3ab19d6b	0.0013550943
57	0xbcce297b	-0.025166264
58	0x3d2f46cc	0.042792127
59	0x3bb6e3cd	0.005581355
60	0x3cefbdc9	0.029265301
61	0x3d1ae1a1	0.037812833
62	0x3cda557a	0.026652087
63	0x3d3a2c98	0.045452684

conv4.0.weight f4 [128, 64, 3, 3]
0	0x3cd8e04e	0.026474144
1	0x3c449366	0.011998033
2	0x3b32f480	0.0027306378
3	0x3d06a3a5	0.032870907
4	0x3c502aad	0.012705487
5	0x3cff936f	0.031198232
6	0xbc612248	-0.013741083
7	0xbd234fb7	-0.039870944
8	0x3c2c324b	0.010510038
9	0xbd0c7698	-0.034292787
10	0x3ce77e22	0.028258387
11	0xbb2f489f	-0.0026746166
12	0xbc99cdbb	-0.018774858
13	0xbcedbe3c	-0.029021375
14	0xbca854da	-0.020548273
15	0xbb70b969	-0.0036731607
16	0xbc8023b2	-0.01564202
17	0x3ccba0fc	0.024857037
18	0x3cb212b1	0.021737428
19	0xbd2b4128	-0.041810185
20	0xbd422f2e	-0.047408275
21	0x3cabf27a	0.020989645
22	0x3b23d01b	0.0024995867
23	0xbd0d7fe5	-0.034545798
24	0x3cfa86d2	0.030581865
25	0x3b766272	0.00375953
26	0xbc5c1d8b	-0.013434778
27	0xbd2dbfd6	-0.042419277
28	0xbc83af68	-0.016074851
29	0xbc8b1ae7	-0.016980601
30	0x3cc84d09	0.024450796
31	0xbce9299c	-0.028462224
32	0xbcb2da8f	-0.021832732
33	0x3c2415f2	0.010014998
34	0x3c2f9a42	0.01071793
35	0xbd2d1e77	-0.04226538
36	0xbd19b948	-0.037530214
37	0xbcae36a7	-0.021266295
38	0x3c2fcce3	0.010730001
39	0x3d363c91	0.044491354
40	0xbc8c7f49	-0.017150538
41	0xbc0c07f8	-0.008546822
42	0x3d0821b6	0.033235274
43	0xbc3d1b65	-0.011542176
44	0xbcd61648	-0.026133671
45	0xbcc34955	-0.023838678
46	0xbc3942a9	-0.011307397
47	0x3a821bb1	0.0009926466
48	0xbcff3164	-0.031151481
49	0x3c8809a5	0.016606161
50	0xbd2464e4	-0.04013528
51	0x3ca9c202	0.020722393
52	0xbccfa92a	-0.025349218
53	0xbb7d72a2	-0.0038673063
54	0xbcb1f2cd	-0.021722222
55	0xbd367845	-0.04454829
56	0xbcc25b12	-0.023725066
57	0x3d04e9ee	0.032449655
58	0xbbc3e1ab	-0.0059778295
59	0xbb9583a6	-0.004562813
60	0xbbad2461	-0.0052838777
61	0xbcac255a	-0.021013904
62	0x3c552175	0.013008465
63	0xbcdebd0e	-0.027189758
64	0x3cffe3a5	0.031236479
65	0x3c9fa8d5	0.019489685
66	0x3cccbde2	0.024992887
67	0x3aaa81dd	0.0013008673
68	0x3b699bf3	0.0035645931
69	0x3c1f0aa8	0.0097071305
70	0x3c810212	0.015748058
71	0xbb11641c	-0.0022184914
72	0xbcebfea9	-0.028807955
73	0xbd1f2ec9	-0.038862977
74	0xbc5bf954	-0.013426144
75	0xbd0c6519	-0.0342761
76	0xbc46f433	-0.012143183
77	0xbd1ebdca	-0.038755216
78	0x3b0ece8c	0.0021790592
79	0xbc2b656a	-0.010461191
80	0xbcab1ed8	-0.02088873
81	0xbd0d6424	-0.03451933
82	0xbc463adf	-0.012098997
83	0xbcd5ea6d	-0.02611276
84	0xbd3ed800	-0.046592712
85	0xbc045d7d	-0.00807893
86	0xbd26917b	-0.040666085
87	0xbc0de499	-0.008660459
88	0xbce9637e	-0.028489824
89	0xbcbd0ac4	-0.023076423
90	0xbcc8f219	-0.024529504
91	0xbcc09faa	-0.023513634
92	0x3c0f5842	0.00874907
93	0xbcc588eb	-0.02411314
94	0x3d0e65d4	0.03476508
95	0xbc0d0a9a	-0.008608485
96	0xbcdf90c8	-0.027290717
97	0x3cff324e	0.031151917
98	0x3d1027ae	0.03519409
99	0xbc7fa2fa	-0.0156028215
100	0xbd13f3d1	-0.036121193
101	0xbd3e36d6	-0.046439014
102	0xbbc1e2e0	-0.005916938
103	0xbca73fad	-0.020416105
104	0xbccf1546	-0.025278699
105	0xbd1697a1	-0.0367657
106	0x3c995140	0.0187155
107	0xbca3689a	-0.019947339
108	0x3bc25f08	0.0059317388
109	0x3c7ce87f	0.015436291
110	0xbd2b151a	-0.04176817
111	0x3c7aac1d	0.015299824
112	0xbc2fe319	-0.010735297
113	0x3c1f4570	0.009721145
114	0x3cc3bcf1	0.023893805
115	0x3d093b18	0.03350362
116	0x3cca11e3	0.024666732
117	0x3cd842e6	0.026399087
118	0x3c0db1cd	0.008648348
119	0x3c350a19	0.011049771
120	0xbc9d0342	-0.019166593
121	0xbccd574b	-0.025066039
122	0xbd2bf810	-0.041984618
123	0x3cdcbf80	0.026946783
124	0x3d12cc05	0.0358391
125	0x3c2695de	0.010167567
126	0xbd3ed27c	-0.046587452
127	0xbc8b1595	-0.016978065
128	0x3c87906e	0.016548362
129	0xbd29cdb5	-0.041455943
130	0x3cf2384c	0.02956786
131	0xbd34c647	-0.044134405
132	0x3cafe01b	0.021469167
133	0x3b7df477	0.0038750449
134	0x3d0b0224	0.03393759
135	0xbd315046	-0.043289445
136	0x3d0187be	0.031623594
137	0x3cf18a19	0.029484795
138	0xbb1db6e0	-0.00240653
139	0xbcff32dd	-0.031152183
140	0x3ccc9892	0.024975095
141	0xbd0ebf09	-0.034850154
142	0xbd120170	-0.035645902
143	0xbd08c8c5	-0.033394594
144	0xbc5f6557	-0.013635001
145	0xbce0fb0c	-0.027463458
146	0xbc83e613	-0.016100919
147	0xbd3a609e	-0.045502298
148	0xbb94839a	-0.0045322897
149	0x3b3b3dc9	0.0028570762
150	0x3d026f0e	0.03184419
151	0xbd014d4a	-0.03156785
152	0x3d0ca534	0.034337237
153	0x3b464515	0.0030253578
154	0x3d058693	0.032599043
155	0xbd1d1b58	-0.038356155
156	0xbbbedaa4	-0.005824404
157	0x3c5522ee	0.013008816
158	0x3cbce95e	0.023060497
159	0x3d39fea1	0.04540885
160	0xbd16693f	-0.036721464
161	0xb99f708a	-0.0003041069
162	0xbd0bdd2a	-0.034146465
163	0xbd24c541	-0.04022718
164	0x3c59258f	0.013253584
165	0xbaaf7ed1	-0.0013389235
166	0xbd41301e	-0.04716503
167	0x3cdc8ebb	0.026923528
168	0x3afeee1c	0.0019449624
169	0xbccbf98a	-0.024899263
170	0xbcd0a203	-0.025467878
171	0xbca828c9	-0.02052726
172	0xbd33ce57	-0.043897953
173	0xbc216e38	-0.009852938
174	0xbad21214	-0.0016027116
175	0xbd431e93	-0.04763658
176	0x3d01746d	0.031605173
177	0xbbbed6f8	-0.005823966
178	0xba8be253	-0.0010672308
179	0x3b4a7b7e	0.003089636
180	0x3cbbf104	0.022942074
181	0xbc014aec	-0.007891398
182	0x3c93de3a	0.018050302
183	0x3c9de2ad	0.019273126
184	0x3d0256d3	0.031821083
185	0xbd364bf2	-0.04450602
186	0x3c712c1e	0.014719991
187	0xbd0cb6a7	-0.03435388
188	0x3ba8f8d7	0.005156617
189	0x3ca2a2ca	0.019853014
190	0xbbfaca3f	-0.007653504
191	0xbd35503a	-0.044265963
192	0x3c5e0066	0.0135499
193	0xbb428021	-0.0029678422
194	0xbcbfb63e	-0.02340233
195	0x3c049b19	0.008093619
196	0xbb95213e	-0.004551082
197	0x3af8449c	0.0018941346
198	0xbb7741f5	-0.0037728522
199	0xbbd1d612	-0.006403693
200	0xbc6dd398	-0.01451578
201	0xbbb8ffc3	-0.0056457235
202	0xbc56efb0	-0.013118669
203	0xbcecf421	-0.028925003
204	0xbb6e742f	-0.0036385169
205	0xbceb1534	-0.028696634
206	0xbd00a098	-0.031403154
207	0x3cf4861c	0.029849105
208	0xbc981856	-0.018566292
209	0xbd039f8f	-0.03213459
210	0xbc8a79cc	-0.01690378
211	0x3b593717	0.0033144408
212	0x3b976f3b	0.004621414
213	0xbcc2c28e	-0.023774412
214	0x3b40f0ca	0.0029440396
215	0xbd2e2c23	-0.04252256
216	0x3ce37c50	0.027769238
217	0xbd0123ae	-0.031528167
218	0x3cd8c50d	0.026461149
219	0x3d126c14	0.035747603
220	0x3c7d75b7	0.01546996
221	0xbd2b0ffb	-0.041763287
222	0xbd2e4264	-0.042543784
223	0xbd19fec3	-0.037596475
224	0xbd3e855f	-0.04651391
225	0xbbfe13b2	-0.0077538127
226	0xbccba741	-0.024860026
227	0xbd09ba7d	-0.033625115
228	0xbc0f73d7	-0.008755646
229	0x3d0083fa	0.031375863
230	0x3ab4968a	0.0013777774
231	0x3b8ad621	0.004236952
232	0xbd24ba71	-0.040216867
233	0xbd3c1792	-0.045920916
234	0xbc1ac273	-0.009445774
235	0xbc538b3e	-0.012911616
236	0x3c4311eb	0.011906127
237	0x3c32df01	0.010917426
238	0xbd3da173	-0.046296548
239	0xbbce3ca8	-0.006293852
240	0x3c986d26	0.018606734
241	0x3c5a0414	0.013306636
242	0x3bb2135f	0.005434438
243	0x3c616943	0.0137580065
244	0xbd3e9f93	-0.0465389
245	0x3a57a76b	0.00082265463
246	0xbd35ca5f	-0.04438245
247	0xbd2e1643	-0.0425017
248	0xbc9724ad	-0.018450106
249	0x3ca9f3da	0.02074616
250	0x3b048d45	0.0020225805
251	0xbd19fa8f	-0.037592467
252	0xbcc14adb	-0.023595264
253	0xbcc017a3	-0.02344877
254	0x3cfdef3e	0.030997869
255	0x3c8be016	0.017074626

conv4.0.bias f4 [128]
0	0xbc87f519	-0.016596364
1	0x3cbffd3a	0.023436178
2	0xbcc0d9b8	-0.023541316
3	0x3d2eebcf	0.042705353
4	0x3cd5a9cc	0.026081942
5	0x3c965b40	0.018354058
6	0xbcddb9bc	-0.027066104
7	0xbc8ace50	-0.01694408
8	0xbc1bda49	-0.009512492
9	0x3cd3800e	0.025817897
10	0x3ca31259	0.01990621
11	0x3ca2d108	0.019875064
12	0x3c10d2e4	0.008839343
13	0xbb3d7fb8	-0.0028915238
14	0x3cfae5a5	0.030627081
15	0xbad3bf00	-0.0016154945
16	0xbcab42c8	-0.020905867
17	0x3c26b0ac	0.010173958
18	0xbd094dd7	-0.0335215
19	0x3d562042	0.052276857
20	0xbcef9645	-0.029246459
21	0x3c205535	0.00978594
22	0x3c2f38a1	0.010694654
23	0x3cff25f0	0.03114602
24	0xbce3b723	-0.027797287
25	0xbc9dd637	-0.019267185
26	0x3c55e475	0.013054957
27	0x3d0882e0	0.033327937
28	0x3d3005b3	0.042974185
29	0x3b68c5ab	0.003551821
30	0xbc93ce35	-0.018042663
31	0x3c477ff1	0.0121765
32	0xbcd1d071	-0.025612088
33	0x3cad3f32	0.021148298
34	0xbbffa418	-0.007801544
35	0xbc791954	-0.015203793
36	0x3d05491a	0.03254042
37	0xbc8be9b3	-0.01707921
38	0xbd298c39	-0.041393492
39	0xbcb9ff0a	-0.02270462
40	0xbc9a8860	-0.018863857
41	0x3be8d0d9	0.0071049747
42	0x3d15a402	0.036533363
43	0x3c8abc0d	0.016935373
44	0xbbe47959	-0.0069724736
45	0x3beccba5	0.0072264248
46	0x3ca3f83a	0.020015825
47	0x3add9eec	0.0016908324
48	0xbb1f4c39	-0.0024306907
49	0xbc86b7eb	-0.01644512
50	0x3cf84b74	0.030309416
51	0x3c123753	0.008924323
52	0x3cd78bfe	0.02631187
53	0xbcfdd003	-0.030982977
54	0xbc9d6aeb	-0.019216022
55	0xbd5c38cf	-0.053765114
56	0xbc397e14	-0.011321563
57	0xbb6405b3	-0.0034793436
58	0xbd593d9e	-0.05303728
59	0x3d3f4c73	0.046703767
60	0x3bb4992f	0.005511425
61	0xbd34b4ce	-0.04411774
62	0x3bcf8bdc	0.006333811
63	0xba2dacd5	-0.000662518
64	0xbd15bc20	-0.036556363
65	0x3c52e3d2	0.012871699
66	0x3c472a25	0.012156044
67	0x3d1fee04	0.03904535
68	0xbb638f29	-0.0034722781
69	0xbcf50d74	-0.029913642
70	0xbc8b9fde	-0.017044004
71	0xbc0ff98f	-0.008787527
72	0xbc43a3a0	-0.011940867
73	0x3c31bce4	0.010848258
74	0xbd0c7b84	-0.03429748
75	0xbd1c34f3	-0.038136434
76	0xbc6ba901	-0.014383555
77	0x3d250a69	0.04029313
78	0x3d628e5b	0.055311542
79	0x3cdc4628	0.026888922
80	0xbc9a87a1	-0.018863501
81	0x3ca608dd	0.020267898
82	0x3cedab50	0.029012352
83	0xbc98040d	-0.018556619
84	0xbc2d6c83	-0.010584953
85	0xbbb7dd40	-0.005611092
86	0xbc09cf36	-0.008411219
87	0x3ccb1d2d	0.024794186
88	0xbb9ab369	-0.0047210944
89	0xbcb3c246	-0.021943223
90	0xbc6678f2	-0.014066922
91	0xbba6389f	-0.0050726677
92	0x3c1e0e58	0.0096469745
93	0x3cc117da	0.023570944
94	0xbd32796e	-0.043572836
95	0x3c76cfbe	0.015064178
96	0x3d7e62ed	0.06210606
97	0x3cf51875	0.029918889
98	0x3d08777e	0.03331708
99	0xbc9e57da	-0.019329
100	0xbcd0c296	-0.02548341
101	0xbcadc0f4	-0.021210171
102	0x3cef1292	0.02918366
103	0x3d5f311c	0.054490194
104	0xbd0a9088	-0.033829242
105	0x3cd0039e	0.02539235
106	0x3ca17614	0.019709624
107	0x3ca297bd	0.019847745
108	0xb8f9c8e4	-0.00011910664
109	0x3a60f7b3	0.0008581832
110	0xbcf66824	-0.030078955
111	0x3c86eaf8	0.016469464
112	0x3cd29f25	0.025710652
113	0x3c9cc633	0.019137478
114	0xbbebaedf	-0.007192477
115	0x3d21ceb2	0.03950376
116	0xbd082f2c	-0.03324811
117	0xbccfe33b	-0.025376907
118	0xbcd26308	-0.025681987
119	0x3b39aad4	0.0028330581
120	0x3d0076e7	0.031363394
121	0xbb62ee5d	-0.003462694
122	0x3cf1b723	0.029506272
123	0x3d25356e	0.040334158
124	0xbc1ce466	-0.009575939
125	0xbd320dc2	-0.04347015
126	0x3cf5b193	0.0299919
127	0x3b586033	0.0033016324

linear.weight f4 [10, 2560]
0	0x3b447fb8	0.0029983353
1	0xbc4e0d98	-0.012576483
2	0x3aab284f	0.0013058278
3	0xbbea3043	-0.0071468665
4	0x3ccd6c7e	0.025076147
5	0xbc0e0f0a	-0.008670578
6	0xbc09368a	-0.0083748195
7	0x3ca77244	0.020440228
8	0x3c04df69	0.008109906
9	0xbb4ea030	-0.0031528585
10	0xba8c5f2d	-0.0010709517
11	0xbb949b0f	-0.004535086
12	0x3cbd1001	0.02307892
13	0xbc416496	-0.011803767
14	0xbb059873	-0.0020385056
15	0x3c371fb5	0.011176993
16	0x3bcad2d3	0.006189683
17	0xbb43ed61	-0.0029896128
18	0xba641c94	-0.0008701768
19	0xbc2b05e6	-0.010438418
20	0x3c71a4e2	0.014748784
21	0x3ba53112	0.00504125
22	0x3c3b2d9a	0.0114244465
23	0xbc13d3fa	-0.009022707
24	0xbc070347	-0.0082405275
25	0xbc1d7080	-0.009609342
26	0xbc40cfba	-0.011768276
27	0xbbea2871	-0.0071459343
28	0xbb6ab6cd	-0.0035814524
29	0xbc8c59be	-0.017132636
30	0xbc0b3e26	-0.008498704
31	0xbcc97cad	-0.024595583
32	0xbbe2d1f4	-0.006922001
33	0x3c3a635a	0.011376226
34	0xbc1e6091	-0.009666578
35	0x3ca10650	0.01965633
36	0x3a0c576b	0.00053536025
37	0x3acf27fe	0.0015804765
38	0x3ce4db20	0.027936518
39	0xbb817c86	-0.003951612
40	0xbc4e77b8	-0.012601785
41	0x3be37c7b	0.0069423295
42	0xbc823906	-0.015896332
43	0x3b60d61f	0.0034307314
44	0xbc4e701c	-0.012599971
45	0xbc827e94	-0.015929498
46	0xbbb7c162	-0.00560777
47	0x3b2e8370	0.0026628636
48	0xbb611ee8	-0.0034350697
49	0xbcc91b1d	-0.024549061
50	0x3b71e7ee	0.0036911923
51	0xb989dce9	-0.00026295267
52	0x3c390683	0.011293056
53	0x3ce0867f	0.027407883
54	0xbbbf7c28	-0.005843658
55	0xbad1ebe5	-0.0016015737
56	0xbc0166cc	-0.007898044
57	0x3b461dd3	0.003023018
58	0x3ce5d751	0.028056772
59	0xbc17b47f	-0.009259342
60	0xbb8921ab	-0.0041849217
61	0xbb9c9e87	-0.00477964
62	0xb903c5b5	-0.00012566785
63	0xb7566750	-1.2779448e-05
64	0xbcd6d28c	-0.026223443
65	0xbc0f097d	-0.0087302895
66	0xbc8518d2	-0.016247187
67	0xbb4f8790	-0.0031666495
68	0xbc2439db	-0.010023559
69	0xbcbe8bd4	-0.023260035
70	0xbc03c16d	-0.008041722
71	0xbc8bc8a0	-0.017063439
72	0x3c8ecb38	0.017430887
73	0xbbd55827	-0.0065107527
74	0xbb8b818f	-0.004257388
75	0x3b80a340	0.003925711
76	0xbb8ede20	-0.0043599755
77	0xb9f480ed	-0.00046635364
78	0x3d06f9ee	0.032953195
79	0xbbfbc317	-0.0076831686
80	0x3a431384	0.0007441568
81	0xbc103ca0	-0.008803517
82	0x3c7d8118	0.015472673
83	0xbc4a3a7c	-0.012343045
84	0x3b21d013	0.0024690672
85	0x3c6c498b	0.014421831
86	0x3b6cdd0f	0.0036142503
87	0xbbce3bee	-0.0062937653
88	0x3c7ac0cb	0.0153047545
89	0xbcba4022	-0.022735659
90	0xbc2d3c04	-0.010573391
91	0xbc4b2783	-0.012399557
92	0x3bc8bf76	0.0061263395
93	0xbc0c4ae1	-0.008562774
94	0xbc0bbc07	-0.008528716
95	0x3cc4f74e	0.024043705
96	0x3bb0053b	0.0053717173
97	0x3c9b3f01	0.018950941
98	0xbb8670c8	-0.0041028
99	0x3ca34b21	0.019933285
100	0x3c145a25	0.009054695
101	0xb9bc1fba	-0.00035881792
102	0x3c845600	0.01615429
103	0xbc337f48	-0.010955639
104	0xbc7c3322	-0.01539305
105	0x3b08e9ec	0.0020891381
106	0xbad34098	-0.0016117273
107	0xbc7c0222	-0.015381368
108	0xbc894a49	-0.016759055
109	0xbbce2606	-0.006291154
110	0xbc4f432d	-0.012650293
111	0xbb9abb55	-0.0047220387
112	0x3ca35c44	0.019941457
113	0xbbb20ee1	-0.0054339026
114	0x3c58c556	0.013230642
115	0x3c31f3bf	0.010861336
116	0xbc9454a0	-0.018106759
117	0x3bbcfbca	0.0057673203
118	0xbd08b40f	-0.033374842
119	0xbcce3c91	-0.025175365
120	0x3c6f7a5c	0.014616575
121	0xbc389955	-0.011267026
122	0x3c7d615b	0.015465106
123	0xbbe79eb7	-0.007068481
124	0xbc207ed1	-0.00979586
125	0xbcd9d582	-0.026591066
126	0xbc015eea	-0.007896164
127	0xbc450ec7	-0.012027449
128	0x3c41e127	0.011833466
129	0x3c024893	0.007951873
130	0x3c4257cc	0.011861753
131	0x3c1be346	0.009514635
132	0x3cd2e4bd	0.025743837
133	0x3cda607b	0.026657334
134	0xbaf422b8	-0.001862607
135	0x3c1417d0	0.0090388805
136	0x3af485bd	0.001865558
137	0xbb550748	-0.003250556
138	0x3cb4fb96	0.022092622
139	0x3cfecfc3	0.031104928
140	0x3be0d28e	0.0068610376
141	0xbc15c806	-0.009141928
142	0x3b556c45	0.0032565754
143	0xbba592f0	-0.0050529167
144	0x3b3ad02e	0.0028505432
145	0x3b135454	0.0022480683
146	0x3c224506	0.009904152
147	0x3bf2294f	0.0073901783
148	0x3c536d18	0.012904428
149	0x3bf416d5	0.007449011
150	0x3c0e9684	0.008702878
151	0x3b87a6b6	0.0041397465
152	0xbc39a709	-0.011331328
153	0x3cd224b7	0.025652273
154	0x3c9c93be	0.019113418
155	0x3ccbcd0a	0.024878044
156	0xbc05333c	-0.008129891
157	0xbb9cb7fd	-0.0047826753
158	0x3bc639d0	0.0060493723
159	0xbb5f798e	-0.0034099552
160	0x3c050db6	0.008120945
161	0x3c71b852	0.014753418
162	0x3c28432f	0.010269924
163	0xbc83e31c	-0.016099505
164	0x3cad55a5	0.021159003
165	0xb69ac6ab	-4.6126856e-06
166	0x3b534852	0.0032239151
167	0xbc373806	-0.011182791
168	0x3c037ffb	0.008026118
169	0xbbcda1e4	-0.0062754024
170	0xbbbb165d	-0.005709453
171	0xbc49a5c9	-0.012307593
172	0xbb656c14	-0.0035007047
173	0xbc1c247f	-0.009530186
174	0x3cf467ab	0.029834589
175	0x3c0d1963	0.00861201
176	0x3c3a71f6	0.0113797095
177	0x3c9dfc09	0.019285219
178	0x3ca79f91	0.02046183
179	0xbb866324	-0.004101174
180	0xbc17835b	-0.009247626
181	0xbc5adc2f	-0.01335816
182	0x3ca683e5	0.020326564
183	0x3cb9b29c	0.022668175
184	0xbac89aec	-0.0015304959
185	0xbcf8a2e8	-0.030351117
186	0xbcec26fc	-0.028827183
187	0xbcb3978f	-0.021922855
188	0xbc3b5387	-0.011433489
189	0xba9405bf	-0.0011293216
190	0x3c53de29	0.012931385
191	0x3c72f5c9	0.014829108
192	0x3b89e595	0.0042082765
193	0xbc2feece	-0.010738088
194	0x3a212cce	0.0006148339
195	0xbbe89143	-0.0070973947
196	0x3af002c6	0.0018311373
197	0x3ca24678	0.019808993
198	0xbc928439	-0.017885314
199	0xbbbcbe9f	-0.0057600285
200	0xbc5c4633	-0.013444471
201	0xbb933602	-0.004492522
202	0x3ba439b4	0.0050117616
203	0x3cc29ffc	0.023757927
204	0x3bf6a4ef	0.007526986
205	0x3b07214f	0.0020619219
206	0x3ba62493	0.005070278
207	0xbd037bde	-0.03210055
208	0x3c83852d	0.016054714
209	0xbbb348ad	-0.00547131
210	0xba7bd2ea	-0.0009606319
211	0xbc786b12	-0.015162246
212	0x3c7019b6	0.014654567
213	0xb9bf8990	-0.0003653285
214	0x3beebdc2	0.0072858045
215	0x3c3950a7	0.011310733
216	0xbc0a72e4	-0.008450244
217	0xbc430c55	-0.011904796
218	0x3c91da00	0.017804146
219	0x3c283b22	0.010268005
220	0xbc480cc3	-0.012210074
221	0xbbf705fa	-0.0075385543
222	0xbbddf610	-0.0067737177
223	0x3bbbc559	0.005730313
224	0xbbdef892	-0.0068045342
225	0xbc367686	-0.011136657
226	0x3ca27fa5	0.019836256
227	0x3c272b25	0.010203158
228	0x3c713328	0.014721669
229	0x3c549031	0.012973831
230	0xbc827dcc	-0.015929125
231	0x3c8874c5	0.016657243
232	0xb988bd46	-0.0002608096
233	0x3c894848	0.0167581
234	0xbc36da1f	-0.011160403
235	0x3aa37827	0.0012471721
236	0xbc0e28c8	-0.008676715
237	0x3c63fa07	0.013914592
238	0x3b397449	0.002829807
239	0x3c3379bd	0.010954318
240	0x3c69100a	0.014225015
241	0x3c4aed5d	0.012385693
242	0xbc4eca60	-0.012621492
243	0xbc912d7a	-0.01772188
244	0x3ab3edd3	0.0013727493
245	0x3c07ce35	0.00828891
246	0xbc9d9309	-0.01923515
247	0x3aa9804b	0.0012931911
248	0x3b222dc4	0.0024746517
249	0xbca44020	-0.020050108
250	0x3b61b9d4	0.0034443038
251	0xbc37687c	-0.011194345
252	0xbbc89283	-0.006120981
253	0xbb76f5c9	-0.003768312
254	0x3cb23dfc	0.021758072
255	0x3b9ace8e	0.0047243303

linear.bias f4 [10]
0	0xbceebcd0	-0.029142767
1	0xbbbb5731	-0.005717181
2	0x3b7472b3	0.0037299811
3	0x3c51a1e6	0.012794947
4	0xbc365b15	-0.011130114
5	0x3c360211	0.011108891
6	0xbca0615c	-0.019577675
7	0x3c14f505	0.00909162
8	0xbc28b6ec	-0.010297518
9	0xb96b258a	-0.00022425331
